netmatze-pytorch-test-model/model.safetensors (safetensors, 1920 bytes, 3 tensors)

linear.bias f4 [10]
-0.021470994 0.04903701 -0.11765851 -0.1362919 -0.053399593 0.0036252588 0.15182231 -0.008134007
0.050197944 0.10404815
00000000: f0e3 afbc 08db 483d f2f6 f0bd 1b90 0bbe
00000010: 88b9 5abd c095 6d3b 4f77 1b3e 8044 05bc
00000020: 5c9c 4d3d 3217 d53d

linear.weight f4 [10, 32]
-0.013773859 -0.16532668 -0.080613494 -0.11613046 -0.089968495 -0.17622522 -0.02629672 -0.10218819
-0.14818981 0.16880919 -0.007500261 -0.16237347 0.03194408 -0.09951914 0.0125376135 0.14797552
-0.03136684 0.049105927 0.16528831 0.0887696 0.008473054 0.022112086 -0.06776296 -0.03928463
0.02685161 0.058766484 -0.15123199 -0.16062048 -0.02620326 -0.07039101 -0.113239855 0.056291744
-0.13442722 -0.12243417 0.12727873 -0.1180832 -0.14630842 0.01119189 -0.07025264 -0.14274602
0.09966032 0.095286384 -0.09028769 -0.016875535 0.0065471977 0.17114346 0.06686418 -0.011254564
0.06213714 0.038713858 0.15670244 -0.0685049 -0.1603165 0.059096143 -0.10385826 -0.16166139
-0.052776575 -0.10440638 -0.034643546 0.12557857 -0.048975676 -0.102297224 -0.100545354 0.0036764294
-0.12332362 0.15091439 -0.094005175 0.031165585 0.11654405 0.10557015 -0.06978879 -0.02581568
-0.08810748 0.108743355 -0.090117715 -0.11285253 -0.008550882 0.013291135 0.045401633 -0.07148483
-0.10959437 -0.1436746 0.13856684 0.086089715 -0.08310604 -0.029970959 -0.16306968 0.020842835
-0.15610039 0.16136916 -0.02425532 -0.15089375 0.022280216 0.038781986 -0.027550653 0.15824641
-0.08493437 0.07109907 -0.049042642 -0.16754158 -0.016742632 -0.10606001 -0.14324957 -0.04254435
-0.008278519 0.042488784 0.041395828 -0.046898335 -0.03831716 -0.058506444 -0.0699491 -0.0031324774
0.031229705 -0.11159054 0.09251724 -0.019243807 -0.07234234 -0.017218128 0.07909675 0.027036488
0.10934375 -0.04342729 -0.1702647 -0.0352657 0.14615299 0.021985888 -0.046698183 -0.006599486
0.015332893 0.015774593 0.05435972 -0.029016823 0.1660809 -0.013499826 -0.13972732 0.11572607
-0.044759914 -0.0032080114 -0.11207787 0.08805166 -0.102090016 -0.08179192 -0.042307526 0.031022564
-0.10305145 -0.14131136 -0.168524 0.018601745 -0.059098482 -0.08446993 0.0881166 0.11743538
0.040574178 -0.14557165 -0.10838368 -0.14900194 -0.03271784 0.024999976 -0.068258695 -0.1734249
-0.023923248 -0.11506522 -0.06505134 0.05056405 -0.03316626 0.09670989 -0.15132405 0.043820202
-0.078206174 0.07595669 0.12840976 0.12845771 -0.13030395 0.07005215 -0.12929131 -0.0824107
-0.13856566 0.10344066 0.011718214 0.1652327 -0.04634455 -0.17176028 0.012494162 -0.16700223
-0.06318451 0.041114464 0.08911349 -0.060200132 -0.043945 -0.14183202 0.13090412 0.1349722
-0.013845265 0.0685565 -0.13390371 0.11990215 -0.08489764 -0.13596804 -0.16117047 0.010286912
0.15625985 0.0014367253 -0.04719104 -0.07674317 0.011256501 -0.11181571 -0.11921729 -0.00700061
0.08600797 -0.029875144 0.12207247 0.08232777 0.0037169456 0.16171543 -0.07371303 -0.15798262
-0.09520147 0.0875584 0.1102017 -0.07510998 -0.027672604 0.09645362 -0.145677 0.04693912
0.04396391 -0.15563545 0.1573114 0.04976137 -0.12948892 0.0687346 0.13103665 -0.02530174
0.056971177 0.15261196 -0.11043191 0.0224787 0.09001602 -0.03255403 -0.033719108 -0.14549568
0.0848387 0.06424494 0.10230295 -0.12895043 0.044324785 -0.13387823 0.008256361 0.07670213
0.047491133 -0.101615585 -0.06748859 -0.044651523 -0.0693617 -0.14726871 -0.15501165 0.16995077
00000000: c0ab 61bc 664b 29be b018 a5bd ced5 edbd
00000010: 6741 b8bd 6274 34be 386c d7bc 0b48 d1bd
00000020: 12bf 17be 51dc 2c3e c0c4 f5bb 3b45 26be
00000030: ccd7 023d b1d0 cbbd 906a 4d3c e586 173e
00000040: 847a 00bd 4c23 493d 5741 293e d6cc b53d
00000050: 90d2 0a3c 6824 b53c 4fc7 8abd ece8 20bd
00000060: e8f7 db3c 20b5 703d 8fdc 1abe b279 24be
00000070: 38a8 d6bc 2929 90bd 4cea e7bd 2c92 663d
00000080: 4aa7 09be c4be fabd 5b55 023e 9bd5 f1bd
00000090: e0d1 15be 305e 373c 9ee0 8fbd 032c 12be
000000a0: b61a cc3d 8225 c33d c1e8 b8bd 903e 8abc
000000b0: e089 d63b 3b40 2f3e 16f0 883d 1065 38bc
000000c0: 8483 7e3d 6c92 1e3d 9b76 203e 4c4c 8cbd
000000d0: 022a 24be cc0e 723d a4b3 d4bd 908a 25be
000000e0: 402c 58bd 03d3 d5bd 64e6 0dbd ab97 003e
000000f0: b89a 48bd 3581 d1bd b9ea cdbd 40f0 703b
00000100: 1891 fcbd 4d89 1a3e c985 c0bd f84e ff3c
00000110: a6ae ee3d 2a35 d83d 6ded 8ebd 687b d3bc
00000120: b271 b4bd d6b4 de3d a38f b8bd 3a1f e7bd
00000130: 0019 0cbc 10c3 593c 10f7 393d a366 92bd
00000140: 0373 e0bd 6f1f 13be 77e4 0d3e ce4f b03d
00000150: 8033 aabd a885 f5bc bdfb 26be 98be aa3c
00000160: c8d8 1fbe f53d 253e 18b3 c6bc e483 1abe
00000170: 0085 b63c dcd9 1e3d e8b1 e1bc 590b 223e
00000180: 12f2 adbd 649c 913d f0e0 48bd 0590 2bbe
00000190: d827 89bc fe35 d9bd 04b0 12be fc42 2ebd
000001a0: a0a2 07bc b808 2e3d ac8e 293d 7818 40bd
000001b0: 74f2 1cbd 74a4 6fbd 7941 8fbd 404a 4dbb
000001c0: 70d5 ff3c 9589 e4bd ae79 bd3d 30a5 9dbc
000001d0: 3928 94bd 080d 8dbc 7afd a13d a07b dd3c
000001e0: 9eef df3d d0e0 31bd df59 2ebe c472 10bd
000001f0: 21a9 153e c01b b43c 9846 3fbd 8040 d8bb
00000200: d036 7b3c b839 813c 4ca8 5e3d b0b4 edbc
00000210: 1d11 2a3e 602e 5dbc ae14 0fbe ca01 ed3d
00000220: 2c56 37bd 803d 52bb 1589 e5bd 6e54 b43d
00000230: 9214 d1bd 8682 a7bd a84a 2dbd 0823 fe3c
00000240: a30c d3bd edb3 10be 8e91 2cbe b062 983c
00000250: 4011 72bd 92fe acbd 7a76 b43d f681 f03d
00000260: 1c31 263d bc10 15be 43f8 ddbd f793 18be
00000270: 2403 06bd c0cc cc3c 37cb 8bbd 4c96 31be
00000280: b0fa c3bc 50a7 ebbd a339 85bd 401c 4f3d
00000290: 58d9 07bd d60f c63d b1f4 1abe d07c 333d
000002a0: 8f2a a0bd 2e8f 9b3d d97d 033e 6b8a 033e
000002b0: 666e 05be 8077 8f3d f164 04be f1c6 a8bd
000002c0: 28e4 0dbe b2d8 d33d c0fd 3f3c c332 293e
000002d0: c8d3 3dbd ede1 2fbe 50b4 4c3c a202 2bbe
000002e0: e166 81bd a467 283d 2281 b63d 6a94 76bd
000002f0: acff 33bd 6a3c 11be bb0b 063e 2736 0a3e
00000300: 40d7 62bc 5a67 8c3d 0e1e 09be 428f f53d
00000310: d0de adbd 353b 0bbe df09 25be 708a 283c
00000320: 9502 203e 8050 bc3a 644b 41bd 862b 9dbd
00000330: 306d 383c a3ff e4bd 3228 f4bd 6065 e5bb
00000340: f224 b03d b8bc f4bc 2201 fa3d 769b a83d
00000350: 0098 733b bb98 253e dbf6 96bd 32c6 21be
00000360: fdf8 c2bd d251 b33d 6eb1 e13d 43d3 99bd
00000370: a8b1 e2bc 7a89 c53d 5a2c 15be 3c43 403d
00000380: 8013 343d e65e 1fbe 3d16 213e 94d2 4b3d
00000390: be98 04be bac4 8c3d 792e 063e 9845 cfbc
000003a0: 9c5a 693d 4f46 1c3e 202a e2bd 4025 b83c
000003b0: 525a b83d 6057 05bd 0c1d 0abd d2fc 14be
000003c0: eabf ad3d da92 833d 3684 d13d 950b 04be
000003d0: e88d 353d 6017 09be b045 073c 0216 9d3d
000003e0: 1086 423d d51b d0bd 7537 8abd 84e4 36bd
000003f0: 820d 8ebd 9ccd 16be 60bb 1ebe 9307 2e3e

param f4 [3, 32]
0.16096437 0.85309416 0.78430116 0.42312092 0.22677577 0.8932337 0.8466822 0.6755805
0.5966624 0.031766772 0.8809155 0.28554875 0.25489277 0.28300738 0.52334034 0.05503452
0.999266 0.2130506 0.9024535 0.45695168 0.17167759 0.12557262 0.3709618 0.09200305
0.6992364 0.12997532 0.74631506 0.9417109 0.41422993 0.35480762 0.566896 0.039147794
0.09643537 0.5017265 0.26014763 0.78443706 0.19590455 0.29045695 0.56317157 0.9337286
0.44132304 0.50211495 0.22560364 0.5234752 0.713695 0.23794353 0.7364622 0.14861888
0.8434123 0.47315258 0.8538556 0.21365595 0.69974756 0.44752312 0.87230104 0.07067114
0.6472607 0.36699718 0.32099754 0.20998222 0.17170525 0.14263117 0.33953166 0.4338264
0.3106795 0.17697674 0.68545526 0.25179654 0.55204016 0.4836399 0.8010115 0.6195306
0.2504893 0.274859 0.73422986 0.75399166 0.9236582 0.4549415 0.010822475 0.36280876
0.61012506 0.16072953 0.8520785 0.6625406 0.08771908 0.6074544 0.39673334 0.48956406
0.5034881 0.39732474 0.7670218 0.71475583 0.1723072 0.8657821 0.5724736 0.124833286
00000000: d8d3 243e 6164 5a3f f6c7 483f 4ea3 d83e
00000010: e837 683e f7aa 643f 2ac0 583f d8f2 2c3f
00000020: debe 183f e01d 023d ae83 613f 7233 923e
00000030: 4e81 823e 58e6 903e a2f9 053f e06b 613d
00000040: e6cf 7f3f f029 5a3e 3107 673f 92f5 e93e
00000050: 40cc 2f3e 1c96 003e b4ee bd3e 186c bc3d
00000060: 2801 333f 4018 053e 810e 3f3f f713 713f
00000070: f215 d43e 58a9 b53e 1920 113f 7059 203d
00000080: e87f c53d 2671 003f 1232 853e ded0 483f
00000090: 349b 483e c6b6 943e 032c 103f d608 6f3f
000000a0: 18f5 e13e 9b8a 003f a404 673e 7902 063f
000000b0: b7b4 363f 78a7 733e c988 3c3f 8c2f 183e
000000c0: dee9 573f 0e41 f23e 4896 5a3f a0c8 5a3e
000000d0: a822 333f c021 e53e 1f4f 5f3f 08bc 903d
000000e0: e1b2 253f 0ee7 bb3e ca59 a43e 9405 573e
000000f0: 80d3 2f3e e80d 123e 18d7 ad3e 7e1e de3e
00000100: 6211 9f3e 6439 353e ff79 2f3f 7aeb 803e
00000110: 8152 0d3f a69f f73e 170f 4d3f 8f99 1e3f
00000120: 2240 803e 52ba 8c3e 7df6 3b3f 9905 413f
00000130: dd74 6c3f 18ee e83e c050 313c 12c2 b93e
00000140: 2831 1c3f 4896 243e d121 5a3f 439c 293f
00000150: 10a6 b33d 2282 1b3f a220 cb3e 24a8 fa3e
00000160: 99e4 003f 266e cb3e 8a5b 443f 3dfa 363f
00000170: 4c71 303e e5a3 5d3f a18d 123f 98a8 ff3d
